models/sac_mir100.onnx (onnx, 275518 bytes, 6 tensors)

latent_pi.0.weight f4 [256, 5]
00000000: a3eb e03e 9bca 96be 9055 39bd ff8a 87bd
00000010: 2b6f b33e db72 333e 1de9 0b3e d6f9 2fbc
00000020: e9ac e13e a6a2 48bd 956b b4be 87e7 4cbd
00000030: d54b d3be 79a6 2f3e df9c 453e 28dc 4f3d
00000040: 07c1 563e 9f38 e2bd 0acd e13c e508 de3e
00000050: 3aa0 d23e 7784 ca3c 092e f53d 83cf d4be
00000060: ff77 a93d bbf6 96be 4171 bebe f8de 9bbc
00000070: 6700 643e be28 87be 8393 65be 8ca9 c5bd
00000080: ef7d b0be 592b d33e bd2c 223e 2449 d33c
00000090: b629 e13e aa2e 7cbe ba8f b13e f052 de3e
000000a0: 3df9 a53e 9c94 ccbe 4cec da3e 4721 963e
000000b0: db94 b93e f231 983d bbd2 97be 3f3e 28bb
000000c0: 35c1 17be 389a b33e bb90 9abe bfcb 91bd
000000d0: a4e0 85be be20 9fbe eb1f a6be e871 a4be
000000e0: e6dc f6bd 3897 9b3e 1d0b fd3c 4e27 49bd
000000f0: 1a58 4e3e 6d8a 8c3e b767 323e d276 b7bd
00000100: a9fe 9d3e 1032 0a3e abb7 e7bd ad4b 3fbb
00000110: c265 5ebd aaee b33c e4c4 e43e 9be6 633e
00000120: 53ba df3e e7fb 9dbe 6627 95be 2f49 b1be
00000130: 34ab b6be 0c87 a6be b30e e3be 3554 a3be
00000140: 8fcd b5be 3013 a3be ed1f a4be a884 0b3e
00000150: 19d3 9cbe 39ac cd3e 6761 8ebe 7fce df3e
00000160: b077 95be 1359 0fbe 7c92 ac3e 5b87 a23d
00000170: a3d2 c9be 28eb cebe f02f 2a3d 2b9a 7fbe
00000180: 7d38 d1be 8983 d63d 3ed0 da3e f23d e0be
00000190: 4435 a0be cca8 39be 8a99 0d3e 1101 a0be
000001a0: 9ee4 4a3e b741 6e3e b52e 8a3c dd65 c03e
000001b0: 5584 cdbd 3138 e33e 46b1 533e 2260 b8be
000001c0: e86b 2a3e 124f e0be 475b c13e 3a20 a7be
000001d0: e20c cabe 388e 8c3d afc6 8a3e 4563 d33e
000001e0: 1086 bcbc 9a95 debe 48a0 853e 1e04 c8be
000001f0: b650 d43e ce6a 9b3c 6544 3fbe eb6c 91be
00000200: 4dc4 8e3e 8ff1 70be 6849 c7be 9105 2abd
00000210: 7d07 b63d 729f acbe 0129 013e c02d d3be
00000220: a450 b1be 660d 08be a846 273e b36f bc3c
00000230: 0914 913e 1c03 243e edf6 3cbe e42e d0be
00000240: 30bc 63be a747 4f3e 4cb4 11bd 5516 0a3d
00000250: 8904 bcbd 1015 b43e c1e5 013e 5c07 163e
00000260: 1d1b 21be 7a12 763e 8c97 b53d 59e4 93bd
00000270: 32be c93e bcbb aebe da73 8ebe fe24 103e
00000280: 20d6 1dbe 3296 9a3e f86b 8b3e f30d 573e
00000290: f1f8 363e 7eb0 a7be 3d1f 873e 1a59 833e
000002a0: 4141 96be 1e65 943e e963 b73e fca6 1b3e
000002b0: 284a aebe 090b 063e 94c0 96be 9827 83bd
000002c0: 13f5 b83e 6c12 d73e 27ce 663e 133a 90be
000002d0: 1308 d73e 7375 3e3e f7dc cdbd baa5 153e
000002e0: bdf3 abbd 3ecd c33e 7301 54be bc57 d3bd
000002f0: d55d e6bd 54ff 17bd 34a8 d43a 39bc 31be
00000300: f8b6 923e d584 34be 7eca 043e 0d5d 583e
00000310: 5552 66be c31b cb3e d564 b0be acad 02be
00000320: a9cc d9bd 945e f0bd 64c0 143e e8ab e33e
00000330: 7f6e afbe 3269 a93e 3e0a 373e 0236 86be
00000340: f18d cb3d 9d8e d33e e62f 93bd 9482 43be
00000350: edb3 bf3e f923 86be 69c0 803e 2298 73bc
00000360: 9365 d63d b439 afbe 6ab8 b83e 021b 8e3d
00000370: f1a7 c63e 36b2 6b3e d6dc 873d ee49 863e
00000380: 0674 d6bd c1d4 ddbe 62a2 993e 3910 b63e
00000390: 3ce6 1abe 7e09 b2bd 7b72 c83e 907a a6be
000003a0: 4435 bf3e 45b7 543e 7f01 4ebd 8750 1a3e
000003b0: e2c6 27be 9006 79be 0724 98bd 955c b5be
000003c0: b469 243e afbb 4b3e e570 993c ccd2 d83e
000003d0: bd4f 79be b0ca b1bd 4cdd a1be 3539 a73e
000003e0: 68ff 143d 7be8 bebd cc0b 5fbe 90c3 ab3e
000003f0: afbf 88bd d73a c13e 0822 bfbd 5db9 dd3e
0.43929777 -0.2945145 -0.045247614 -0.06618308 0.35045752 0.17524283 0.13663144 -0.010740718
0.44077232 -0.04898324 -0.3523833 -0.05002549 -0.41268793 0.17153348 0.19298123 0.050747067
0.20972072 -0.11045956 0.02756359 0.4336616 0.41137868 0.024721367 0.11971671 -0.4156457
0.082748406 -0.29485115 -0.3719578 -0.019027218 0.22265778 -0.2639827 -0.22419553 -0.09651479
-0.3447108 0.4124401 0.15837379 0.025791712 0.43977135 -0.24627176 0.34679967 0.4342265
0.32416716 -0.3995713 0.42758405 0.29322264 0.3624638 0.07431401 -0.29652962 -0.0025671867
-0.14819796 0.35078597 -0.30188546 -0.071189396 -0.2614795 -0.31079668 -0.32446226 -0.32118154
-0.12053852 0.30388808 0.030889088 -0.04910975 0.20150796 0.2744936 0.17422377 -0.0895821
0.30858353 0.1349566 -0.11314329 -0.0029189393 -0.054296263 0.02196439 0.44681466 0.22255938
0.43696842 -0.3085625 -0.2913162 -0.34626147 -0.35677493 -0.32524908 -0.44347152 -0.31900182
-0.3550839 -0.31850576 -0.32055607 0.13624823 -0.30629805 0.40170458 -0.27808687 0.43712232
-0.29192877 -0.13998823 0.3370551 0.07935973 -0.39418516 -0.40413785 0.041549623 -0.24961154
-0.4086341 0.10474307 0.42737 -0.4379726 -0.31290638 -0.18130797 0.13828102 -0.31250814
0.19813773 0.23267256 0.016867975 0.37577716 -0.10035006 0.44378808 0.20673093 -0.36010844
0.16642725 -0.43810326 0.37764952 -0.32641774 -0.39462954 0.068630636 0.2710471 0.41286674
-0.023013145 -0.43473512 0.26098847 -0.3906564 0.41467828 0.018971827 -0.18678434 -0.2840341
0.2788414 -0.23529647 -0.38923192 -0.041509215 0.08888147 -0.33715397 0.12613298 -0.41245842
-0.34631836 -0.13286361 0.16335547 0.023002481 0.28335598 0.16016811 -0.1845357 -0.40660775
-0.22239757 0.20242177 -0.035572335 0.033712704 -0.091805525 0.3517232 0.126853 0.14651245
-0.15732999 0.24030486 0.08866796 -0.07221288 0.3940292 -0.34127605 -0.27822763 0.14076611
-0.15413713 0.30192715 0.2723081 0.21001415 0.17868401 -0.3275184 0.2639102 0.25653917
-0.2934666 0.28983396 0.35818413 0.15200418 -0.34040952 0.13090147 -0.294438 -0.06404036
0.36124477 0.42006242 0.22539578 -0.28169307 0.41998348 0.18599491 -0.10051911 0.14614001
-0.08396099 0.38242525 -0.20703678 -0.103194684 -0.11248366 -0.037108734 0.0016224445 -0.17356957
0.2865522 -0.17628796 0.1296787 0.21129246 -0.22492345 0.39669618 -0.3445193 -0.12761563
-0.10634739 -0.11736789 0.14526516 0.44467092 -0.3426399 0.3308807 0.17875001 -0.2621308
0.099391825 0.41319743 -0.0718687 -0.1909278 0.3744196 -0.2619932 0.25146797 -0.014867814
0.104685925 -0.34223711 0.36078197 0.06938745 0.38800004 0.23017201 0.06633918 0.2622828
-0.104713485 -0.4332638 0.300067 0.35559252 -0.1512689 -0.08693217 0.39149842 -0.32515383
0.37345326 0.20773037 -0.050294396 0.15069781 -0.16384462 -0.2431891 -0.07428747 -0.35422197
0.16055948 0.19895814 0.01873059 0.42348325 -0.24346824 -0.08681238 -0.3161415 0.32660833
0.036376387 -0.09321686 -0.21781844 0.3354764 -0.06677186 0.37740204 -0.09332663 0.43305483

latent_pi.0.bias f4 [256]
00000000: f3f5 6a3d 04a7 1e3e f5c5 86be 03ea d6be
00000010: 0259 d23e 9952 bcbe 99e0 a0bd 9c17 e03d
00000020: dc09 a7be 1c00 363d f3ee 73bd a00d bfbe
00000030: 7d59 d13d 6c65 c4be 9c82 1dbe d084 5fbd
00000040: 56c2 153d f121 c3be d0e7 8bbe c8cf aa3e
00000050: e5c0 a0be d2b9 663e cfe5 163d 90b7 bd3e
00000060: 6e5f b6be eb7f 96be 5c74 8abe a281 933e
00000070: 9816 c1be 962c 8b3e 69ce 2cbe 979c 93be
00000080: 6e57 99be c752 e23e c145 9ebe 7b2b bdbe
00000090: c7b0 833e 5f80 cabe b84e 43be 8f93 3a3e
000000a0: 07db c6be a6dd 1f3e 4d9f d6be a0fe 853d
000000b0: 3707 d43e 020c 23bc 168d e03e 5144 80be
000000c0: 29ff c4bc 7e0f e9bd 669f e33e 59bf b1be
000000d0: 966b 66bd 826a 75be eb43 c13e 010a 36be
000000e0: a7b6 b3be d620 5bbe 3de0 a93e 11e7 c03e
000000f0: 7d24 97be d228 3dbe 92da 2cbe 508d c2bd
00000100: 2ebf a63d c32f 853d ef02 55be 3b82 cb3d
00000110: 924d c23e eb3a d13e 9579 c43d 6a24 35bd
00000120: 99e1 a33e d8d7 86be 67c6 da3d ba19 d93e
00000130: acde df3e f53b c93d 08c9 5a3c a3f5 51be
00000140: 21ac 34be 5407 e8bd de53 99be 6c42 443e
00000150: cec6 483e e686 e2be 45d8 4ebe e3f5 603e
00000160: ed7a b63e 5441 b43e a650 a6be c8f2 d9be
00000170: fb63 75bd 33b5 5b3e 22d0 2fbd 7987 c43e
00000180: 192d dabe e471 33be c43e 0a3e 3143 f439
00000190: 7ec9 433e 694f 1abe c5a2 dd3d f0f0 7dbe
000001a0: 7cdc 2dbd 40f4 913e 18e4 e13e 8d65 e0be
000001b0: c03b 9c3e 27db 96be 7a8e 10bc 050a 823e
000001c0: f63d d73e 2a34 78bd 8afd 553d 3b34 9bbe
000001d0: eb6a be3e b427 4dbd 7ca7 c93e 8c87 cabe
000001e0: 9073 ddbd 673a fb3d 494e 83be b855 443e
000001f0: 913c 733e 40d6 8d3e c9b6 ce3d af2f dabe
00000200: f776 88be 56d4 a53d 8e62 c03e bc1e 933d
00000210: d8ef 81be e289 d3be 6f5e d0be 9c97 ae3e
00000220: c976 b53e a58f a63e d2a9 babe da5a 8b3e
00000230: 859d 833b 2ce4 43be 9171 d3be dc70 ca3e
00000240: 76ad 17be 292b 1b3e 180f ad3e 6d96 5abe
00000250: 0912 613e a236 31be 9566 58be 1e99 c7be
00000260: e87d 3f3e 82c7 c3bd 00cc 6d3d 2055 953e
00000270: aedd 913e ae50 113d a10f 603e a651 d9bd
00000280: ea29 30bd f28a 47be ad2b efbd 2912 993e
00000290: 76f5 cdbe 718c de3e d09a a53d 5589 353e
000002a0: 80fa babc c36a 1a3e 1adc 293e 27e6 333e
000002b0: 9a3c 2b3d 15b7 683e 4b54 52be 7ea1 88be
000002c0: 8c96 313e 5aea 843e a2c4 ca3e 0ce0 343d
000002d0: f0a9 923e dd3d 79bd 037e da3d 4544 20be
000002e0: 0787 98be cfe3 843e 04c5 813e 3acf e5bd
000002f0: f969 453e 4a88 a03e 898b 903e d945 7bbe
00000300: 2e10 5b3e 3a83 35bd 0cf6 a63e e795 c8bd
00000310: 36ff 82be a71c f5bc c685 47bd e393 7b3e
00000320: 64bb ad3c 3f7b 7bbe db02 e73c 197d d13e
00000330: f1f9 a33e 6546 c23e dc68 b4be b8a7 e13e
00000340: b639 c73e 2e24 be3d ed31 1c3e 4029 0f3e
00000350: 530d ffbd 9898 8cbe 7616 6ebd 2fb9 c53e
00000360: bbf4 a03e 94a3 4bbd d885 b03e b9c2 8b3e
00000370: d661 cb3d 6462 3a3d ab19 d33e fcb2 83bb
00000380: e139 3abe 53e6 b13e eeac 10be 629b 22be
00000390: b559 a0be 71c3 4b3c 4af8 403e 947a ec3d
000003a0: 7e59 853e 8c6e 28bb 3591 87be e893 d03d
000003b0: 5f44 3a3d 6572 043e ee0b a63e 4739 49be
000003c0: d392 8c3e 71a1 a73e 0396 b73c 7c36 bb3e
000003d0: 6315 603e 62c2 fb3d 22d9 dbbe b393 a7be
000003e0: 8c77 b83e 4d0d a73e 94a6 323e 3aa6 dcbe
000003f0: 08cf 813e bfa1 933e 68e9 1bbe ea1c 11bd
0.05736346 0.15493399 -0.26322904 -0.41975412 0.41083533 -0.36781767 -0.078553386 0.10942003
-0.3262471 0.044433698 -0.05955405 -0.37315083 0.10222147 -0.3835863 -0.15381855 -0.05457002
0.036562286 -0.38111833 -0.27325296 0.3336165 -0.31397167 0.22531822 0.036840256 0.3705411
-0.35619682 -0.2939447 -0.270419 0.2880984 -0.3771255 0.27182454 -0.16875614 -0.28830406
-0.29949516 0.4420378 -0.30912593 -0.36947235 0.25720808 -0.39551064 -0.19072998 0.18220352
-0.3883898 0.15611896 -0.41918412 0.065427065 0.41411754 -0.009951593 0.4385764 -0.2505212
-0.024047451 -0.11379908 0.4445755 -0.347163 -0.056254946 -0.23966411 0.3774713 -0.17777254
-0.3510029 -0.21399245 0.33178893 0.3767629 -0.29520026 -0.18472603 -0.16880253 -0.094996095
0.081419334 0.065032504 -0.208019 0.09936949 0.37949806 0.40865263 0.095935024 -0.04422418
0.32008055 -0.2633655 0.106823735 0.4240244 0.43724573 0.09825889 0.013353594 -0.20503859
-0.17643787 -0.11329523 -0.29946798 0.19165963 0.19607088 -0.44243544 -0.20199688 0.21968798
0.3564066 0.3520609 -0.32483405 -0.4256804 -0.059909802 0.21455841 -0.0429231 0.38384607
-0.42612532 -0.17523915 0.13500506 0.00046589368 0.19119832 -0.15069355 0.108220614 -0.24798942
-0.0424466 0.2850666 0.44119334 -0.43827477 0.30514336 -0.29464075 -0.008823032 0.2539827
0.4203946 -0.060596623 0.052243747 -0.30313286 0.37190947 -0.050086692 0.39385593 -0.3955654
-0.108130574 0.12266999 -0.25645664 0.19173324 0.23753573 0.27702522 0.10093457 -0.42614505
-0.26653263 0.080971405 0.3757519 0.071835965 -0.253783 -0.41316134 -0.40697047 0.34100044
0.35442188 0.32531467 -0.36457688 0.27217752 0.0040165805 -0.1913001 -0.41297582 0.3953923
-0.14812264 0.15153183 0.33800578 -0.21346445 0.21979536 -0.17305997 -0.21132882 -0.38984007
0.18700373 -0.095595375 0.058055878 0.29166508 0.2848944 0.035477333 0.21880962 -0.10611276
-0.043008722 -0.19486597 -0.11678252 0.29896668 -0.40226334 0.43466523 0.08086169 0.1772817
-0.022824526 0.15079789 0.16587868 0.17568265 0.04180584 0.2272609 -0.20539968 -0.2668571
0.17342585 0.25960046 0.39603144 0.04415898 0.28645277 -0.060850013 0.10668566 -0.15651043
-0.29790518 0.25955054 0.25345623 -0.11221166 0.19278707 0.3135398 0.28231457 -0.24538364
0.21392891 -0.0443146 0.32609594 -0.097942166 -0.25585335 -0.029920889 -0.04871156 0.24568133
0.021207519 -0.24558733 0.028199604 0.40915754 0.32026628 0.37944332 -0.3523625 0.44073272
0.38911217 0.092842445 0.1525342 0.1398058 -0.12453713 -0.2746017 -0.05812689 0.38617846
0.31436715 -0.049716547 0.34477115 0.27297 0.0993077 0.04550399 0.4123052 -0.0040191393
-0.18186142 0.34746036 -0.14128467 -0.15879586 -0.3131844 0.012436734 0.18844715 0.115468174
0.2604484 -0.0025700657 -0.26477972 0.10184461 0.04547536 0.12934263 0.32430977 -0.19650756
0.27455768 0.32740358 0.022410398 0.36565006 0.21883158 0.12292935 -0.42939097 -0.32729873
0.36028707 0.32627335 0.17446357 -0.4309557 0.25353265 0.2883434 -0.15225756 -0.035427965

latent_pi.2.weight f4 [256, 256]
00000000: 2463 48bd 7c21 dabc 56d2 58bd 62dc 2c3d
00000010: 7c7c ea3c de1d 50bd 1cdb 3fbd b89c 253c
00000020: c0d1 4e3d 8062 22bd e06b d5bc 8adf 4b3d
00000030: 9c62 6c3d 00f0 933c f2b0 69bd 5ab1 543d
00000040: f08b 6cbd 54c1 113d ca13 59bd bc1f 343d
00000050: 9023 87bb a087 8d3c 9ce0 793d 9067 f4bc
00000060: 0896 2f3d 7a5a 5abd 38fd 52bd 2021 32bc
00000070: 825a 1b3d 7a85 0c3d be40 6cbd 2a69 2e3d
00000080: 80ce b3bb e0ee 4f3d 00eb b8ba 84a7 99bc
00000090: 58fb 1cbc cc5e 853c bc76 f33c 8079 6abd
000000a0: 4229 4bbd 7427 3b3d 50f0 98bb 7a98 09bd
000000b0: 8667 36bd 262c 3f3d ce7a 083d 0425 0bbd
000000c0: a459 31bd 60d5 773c 08c4 08bd 5cc9 7fbd
000000d0: 1000 a53b 00a8 363d 3ed3 3c3d 0088 d2b8
000000e0: e04b 9e3c f405 9e3c 202f c43b 2405 753d
000000f0: 2274 26bd 9459 9abc 4003 3a3d c4dc f8bc
00000100: 7022 273d 78cd 09bc 98b5 273d 5805 5f3c
00000110: 8042 e6bc 321f 183d 18ef 49bc 70f7 513c
00000120: 5c8a f7bc 52cb 63bd a089 ae3b e04d b7bb
00000130: 145f 20bd c4b9 4cbd 30e3 1d3d 0cdd 06bd
00000140: 7c6c 08bd 0080 663b 06ec 38bd 709b 0d3c
00000150: 9048 7d3c c0a8 b1bc a0fa 8a3b 882f 7abd
00000160: 58b3 a73c 687c 1ebd e608 49bd 186c 133d
00000170: 8812 8e3c 383c b4bc 30a8 b83b c050 aa3b
00000180: 647c fdbc 4c27 e7bc 045a 5a3d 5221 693d
00000190: a0f4 f93b baae 17bd 1aab 453d 404c fd3c
000001a0: 80ff 2cbc 68c0 71bc 981e 443d 9055 0d3d
000001b0: 9428 693d 3066 bb3c 2615 583d 38c9 ebbc
000001c0: 3c30 f23c b6fa 6fbd c233 5abd 9cfd 2fbd
000001d0: 2cde 07bd 206c 89bc 3843 d4bc 00d4 e43a
000001e0: 6021 32bd a03a 31bc 6cf2 9cbc 7cf0 513d
000001f0: a493 233d 16a9 0d3d bc24 203d 308d b43c
00000200: 800f 4d3a 587e d8bc c0da 863c 505f c5bb
00000210: 403e 82bb 16ab 783d 4088 dd3b ec79 313d
00000220: 48f9 493d 4821 663c 0043 babb f8f7 593c
00000230: 0490 fe3c 1015 4c3d 60c6 b63c 10a0 f33b
00000240: f2e9 483d c07b 893c 2009 fcbb 24a4 5b3d
00000250: 86d2 34bd 46bd 1abd fa5b 2e3d 9093 66bd
00000260: 1868 443d 4401 743d 8a99 61bd 208c cbbb
00000270: 74b0 88bc 5690 03bd 166d 12bd f871 28bc
00000280: 80ad 1b3a 2a68 1e3d 0ca1 66bd 7805 533c
00000290: 5808 1cbd 5846 873c 7a7b 413d f8a0 733d
000002a0: 70ab 23bc f849 9abc 1094 55bc be77 653d
000002b0: d487 62bd c025 ac3c 40b4 a33a 2095 75bd
000002c0: 06bc 2a3d b44e cbbc 7830 2bbc 04db 28bd
000002d0: 8824 183d b47c 92bc 5cf3 6d3d 20ef 51bd
000002e0: c081 95bc 4efc 58bd ec8b b23c 6031 75bb
000002f0: 6217 17bd 80c9 d9bc 440d 41bd 40b5 933a
00000300: 12e3 613d dc4b 34bd 3a40 55bd c234 0b3d
00000310: b07d d0bb 00bd a03b f007 2cbd 74dd 1cbd
00000320: 40f4 473c 4cd3 c03c 1842 633d 2a48 5abd
00000330: b836 76bc a8a6 253c d0f3 42bc b411 09bd
00000340: 2c36 17bd 9c32 b13c 004a 4ebb 8002 a43b
00000350: 6071 3ebb 7869 273c 303f db3c ae37 4cbd
00000360: a05f 7abd 82ff 2cbd 587a 0f3d d004 b1bb
00000370: f0d8 193d 2e31 253d c049 493d 4006 18bb
00000380: 686e 1a3c 440e 893c 4831 7d3c a03b f4bc
00000390: 9e11 2ebd 08ae 6bbd bcd4 663d 040f 32bd
000003a0: ba29 36bd 260a 4b3d e0bc 063d 8e42 11bd
000003b0: 880c 0cbc ec94 673d 44a7 d0bc e0aa fa3c
000003c0: 5ee4 0b3d 9c1d 08bd a885 7a3c b01c 923b
000003d0: a4a1 9bbc 1457 a3bc 5c84 84bc 8460 593d
000003e0: c029 dd3b a4e4 b73c 345f c2bc 0294 473d
000003f0: ba4d 67bd bca8 2fbd 78b4 bebc e837 f2bc
-0.048922673 -0.026627295 -0.052934967 0.04220236 0.028623812 -0.050809734 -0.04683982 0.010108165
0.050493002 -0.03964472 -0.026052415 0.04977373 0.05771123 0.018058777 -0.057053514 0.051926948
-0.057750642 0.035584763 -0.052997388 0.043975577 -0.0041241124 0.017276585 0.06100522 -0.029834539
0.04286769 -0.05330894 -0.05151102 -0.010872155 0.03792811 0.03430698 -0.05767893 0.04258076
-0.005487263 0.05076492 -0.0014108121 -0.018756635 -0.009581409 0.016280554 0.029719703 -0.057244778
-0.049599893 0.045691922 -0.0046673194 -0.03359268 -0.04453232 0.046672963 0.03332024 -0.033970848
-0.04329838 0.015126556 -0.033390075 -0.06244789 0.005035408 0.04459381 0.046099894 -0.00010038912
0.01932329 0.019289948 0.005987063 0.059819356 -0.040638097 -0.018841542 0.045413256 -0.030378707
0.040804327 -0.008410804 0.040944666 0.013612114 -0.028107882 0.037139125 -0.012325071 0.012815341
-0.030217342 -0.055613823 0.005326465 -0.005594 -0.039153174 -0.049981847 0.03854674 -0.03292565
-0.033306584 0.0035171509 -0.045146964 0.008643016 0.015459195 -0.021686912 0.0042413026 -0.061080486
0.02047126 -0.03869286 -0.04908075 0.035991758 0.01734282 -0.02200137 0.005635284 0.0051976144
-0.030943103 -0.02821698 0.0533085 0.056916542 0.0076280385 -0.037031867 0.04825888 0.030920148
-0.010558963 -0.014755346 0.04788074 0.034505427 0.056923464 0.022875875 0.052754544 -0.028782472
0.029564016 -0.058588706 -0.053272016 -0.04296647 -0.033170864 -0.01677519 -0.025910959 0.00174582
-0.04348886 -0.0108172 -0.019158565 0.051254734 0.039935723 0.03458508 0.039097533 0.02203998
0.0007822439 -0.026427433 0.01646173 -0.006023325 -0.003974706 0.060710035 0.006760627 0.043329164
0.04931 0.014046021 -0.0056842566 0.013303749 0.031074531 0.049824774 0.02231139 0.0074348524
0.049051233 0.016782641 -0.0076915175 0.053623334 -0.044146083 -0.03777816 0.042568184 -0.05629307
0.047950834 0.05957152 -0.055078067 -0.0062117726 -0.016685702 -0.03212007 -0.035748564 -0.0102810785
0.0005938634 0.038673557 -0.05630593 0.012879722 -0.038093895 0.016513035 0.047236897 0.059479684
-0.009989604 -0.0188341 -0.013035789 0.0560224 -0.055305317 0.021014094 0.0012489632 -0.05995667
0.04168322 -0.024817802 -0.010448568 -0.041224495 0.037144214 -0.017881729 0.058093414 -0.051253438
-0.018250346 -0.05297499 0.021795236 -0.0037413463 -0.036887534 -0.02658534 -0.04713179 0.0011269227
0.05514819 -0.044017658 -0.052063204 0.03398586 -0.0063626394 0.004905343 -0.041999757 -0.03829713
0.01220423 0.023538254 0.055482954 -0.053291477 -0.015027694 0.010110535 -0.01189895 -0.03346415
-0.036916897 0.021630578 -0.0031477213 0.005005181 -0.0029059276 0.010218017 0.026763529 -0.049857788
-0.06112635 -0.04223586 0.035028785 -0.005402185 0.037560403 0.040330105 0.0491426 -0.0023197085
0.009425737 0.016730435 0.015453644 -0.029813588 -0.04249727 -0.057539016 0.056355223 -0.04347135
-0.044473387 0.049570225 0.03289497 -0.035463862 -0.00854791 0.056538507 -0.025470383 0.030599058
0.034153335 -0.033231363 0.015290655 0.004458986 -0.018997975 -0.019938983 -0.016176395 0.05307056
0.0067493618 0.022447892 -0.023727037 0.048725136 -0.05647061 -0.042885527 -0.023279414 -0.029567674

latent_pi.2.bias f4 [256]
00000000: ec2e 03bd 8082 19bd 8cbe 4dbd b68e 1fbd
00000010: 00af 78bd 24aa f7bc 1499 f8bc 6854 54bd
00000020: 2041 713d 06bd 273d c07b 1abc fcd2 f0bc
00000030: acb3 d0bc a0be 52bc ecdf 79bd c28e 1f3d
00000040: 9049 db3b c00c f43b 80f5 c33c f4fd b0bc
00000050: 4474 2abd 7840 edbc ea68 4d3d 060d 63bd
00000060: 3618 78bd 304e 36bd 804b f1ba 1c85 efbc
00000070: e86b e33c e477 e5bc 4cb2 2abd aa3a 733d
00000080: 089c c43c 40dd 40bd be95 3b3d 30c7 6ebc
00000090: e476 16bd 1490 66bd bc24 f6bc ec03 5f3d
000000a0: e025 c3bb 18a8 db3c 384c 14bc 8063 90bb
000000b0: e892 eabc 7078 35bc 78e5 66bd cc6c a33c
000000c0: 9465 443d f03a 15bc e492 813c be40 303d
000000d0: d846 9a3c 7038 883c 828c 17bd 0ce5 1dbd
000000e0: 2048 163b 5476 0bbd 5821 d53c 3685 233d
000000f0: ae4f 09bd 0c78 29bd 9826 743d a49a 3fbd
00000100: 40c0 f8bc b637 3ebd 5601 043d d030 e93c
00000110: 00c4 8fbc f083 edbc 48df 783d c014 10bb
00000120: 2c17 4e3d 9841 52bc e81d b63c 423e 41bd
00000130: 78b8 ba3c a477 08bd 6049 00bc d651 0f3d
00000140: 8262 6a3d 8c22 713d b0cb 523d 9cb8 773d
00000150: 788d 0ebc 9e49 223d 54f0 c7bc 52de 363d
00000160: 9091 4f3c 8087 cebb 2c90 8dbc 928b 52bd
00000170: 6ce4 97bc e069 b23b f650 273d c6d9 7cbd
00000180: 383a 3abd 404a dcbc 58dc 3e3c 9884 7bbd
00000190: b09f 2c3d 8c66 34bd d041 633d 7e1e 34bd
000001a0: 9044 70bd 82d8 39bd 0084 663d 40a4 3fbd
000001b0: 8089 18ba ca06 203d 20be 70bd 4274 5d3d
000001c0: 30f4 03bd 8ca6 37bd 50c1 4b3c 881a 95bc
000001d0: 8834 6abc 24d0 45bd 0852 b8bc 4003 0b3c
000001e0: 9416 80bc aac4 3fbd 907c 9f3c d0ee 6c3c
000001f0: 1c9d eabc 38d0 53bd 0490 df3c d098 b9bc
00000200: e089 483d 943d 79bd 3637 03bd e811 fdbc
00000210: a84a 70bc dc22 b53c 80a6 393d 1c83 a3bc
00000220: 7caf cfbc 58b4 de3c 4897 2abc 14a4 96bc
00000230: 7af9 3fbd e01c 153d 1013 093d b69d 753d
00000240: f4d7 cc3c 78aa 1abd dcf7 05bd b039 8d3c
00000250: 80fd b3bb 406c eaba 86f6 343d f01f 18bc
00000260: bc89 103d d0a6 b0bc 8c9e b0bc 98a1 2fbd
00000270: ecc3 383d 94b7 e2bc f068 b8bb a090 313c
00000280: 2c76 4bbd 7803 d93c 803e b2bb 3079 07bc
00000290: a0f3 9dbc 686a 2abd d436 18bd ec11 fc3c
000002a0: 8899 913c c4ac be3c 7cb0 d1bc 66a9 243d
000002b0: a81d a03c 8e5d 5b3d 643d 06bd f07d 923c
000002c0: 32c1 3fbd 6090 ed3c 2c57 c73c 18e9 40bc
000002d0: de8a 5f3d b465 d3bc 0c4b 1c3d e2af 073d
000002e0: b6ae 653d 821a 4fbd 80af af3b 461f 1fbd
000002f0: 904d 6b3c c0e4 9c3c f024 2abc feba 233d
00000300: 10e6 b33c c645 37bd 1e63 7c3d 3ca9 28bd
00000310: 42c0 37bd 442f cebc 2ec5 7a3d e8d7 32bc
00000320: b665 47bd b0a3 923b 745c 153d 9c88 e4bc
00000330: 869a 653d 2cb0 94bc 6a59 2fbd aaa4 4a3d
00000340: d07a 433c 48c5 5fbd c0bf 513b f47d 01bd
00000350: 6449 babc 80e1 403b 1429 13bd fe77 353d
00000360: f424 f1bc 4416 4d3d f0bb 18bd 5c64 73bd
00000370: 0c92 74bd 0c79 4f3d c0c0 07bc e893 113d
00000380: 7ab9 55bd a09a 883c 6ec6 1d3d a6cb 123d
00000390: 149b 48bd 0071 8d39 f020 b03b 583b f7bc
000003a0: 60ae 6bbd 6281 473d 9873 d7bc 284c 793c
000003b0: 80d0 aebc aadf 66bd 140e b4bc b605 693d
000003c0: 9e7b 5dbd e85c 00bd 7490 39bd 6009 9a3c
000003d0: 1088 00bc c08d 143c 0eb8 2f3d f0c5 3d3c
000003e0: 509e 00bd f6a9 01bd b4f3 773d 1437 983c
000003f0: c496 9a3c 7036 293c 604d 14bd 30fd fdbc
-0.03202717 -0.03747797 -0.050230548 -0.03895446 -0.060713768 -0.030232497 -0.03034643 -0.05183831
0.0589 0.04095175 -0.009428918 -0.02939748 -0.0254763 -0.012862831 -0.061004564 0.038954504
0.006692119 0.007447809 0.023920774 -0.02160547 -0.041614786 -0.028961405 0.050148882 -0.055432342
-0.060569964 -0.04450816 -0.0018409342 -0.029238276 0.027761415 -0.02801127 -0.041673943 0.05938212
0.024000183 -0.047086 0.045797102 -0.014573857 -0.036734477 -0.056289747 -0.030046813 0.0544471
-0.005955443 0.026813552 -0.009051375 -0.0044063926 -0.028634503 -0.011076078 -0.056371182 0.01994934
0.047948435 -0.00910829 0.015817113 0.043030493 0.018832609 0.016628474 -0.036999233 -0.038548514
0.0022931173 -0.034048393 0.026016876 0.03992196 -0.033523254 -0.04137425 0.05960712 -0.046778336
-0.03036511 -0.04643985 0.032227837 0.028465658 -0.017549515 -0.028993577 0.060759813 -0.0021985024
0.050315067 -0.012833022 0.022231057 -0.047178514 0.02279304 -0.033317223 -0.007829994 0.034990154
0.05722285 0.058870837 0.051463783 0.06047879 -0.008700721 0.039620988 -0.02440659 0.044645615
0.012668982 -0.006302774 -0.01728066 -0.051402636 -0.018541537 0.00544475 0.040848695 -0.061731122
-0.045465678 -0.026890874 0.011649214 -0.061405748 0.042144477 -0.04404311 0.055482686 -0.043974392
-0.058659136 -0.045372494 0.05627823 -0.0467875 -0.0005818829 0.039068975 -0.058775067 0.05406595
-0.032215297 -0.044836566 0.012436226 -0.018201128 -0.014294751 -0.0482942 -0.022500053 0.008484662
-0.015635766 -0.046818413 0.019468576 0.014461234 -0.028639369 -0.051712245 0.027290352 -0.022655874
0.048959613 -0.06084974 -0.032035075 -0.030892327 -0.014666237 0.022111349 0.045324802 -0.019959979
-0.025352232 0.027185604 -0.010412045 -0.018388785 -0.04686878 0.03640449 0.033465445 0.059964858
0.025005318 -0.037760228 -0.03270708 0.017239422 -0.005492866 -0.0017885044 0.044180416 -0.009284958
0.035287604 -0.021563917 -0.021559976 -0.042878717 0.04510872 -0.027675427 -0.005627744 0.010837704
-0.049673244 0.026490912 -0.0054395795 -0.008268639 -0.019281209 -0.041605383 -0.037161663 0.030770265
0.017773405 0.02327574 -0.02559685 0.040200613 0.019545391 0.053556018 -0.03277339 0.017882317
-0.046815105 0.028999507 0.024333559 -0.011774324 0.054575793 -0.025805332 0.038157508 0.03312672
0.05607482 -0.05056239 0.0053614974 -0.038848184 0.014361754 0.019152045 -0.010384783 0.03997325
0.021960288 -0.044744276 0.061617963 -0.04117702 -0.044861086 -0.025169022 0.0612232 -0.010915734
-0.048680983 0.0044750795 0.036465123 -0.027897172 0.05605557 -0.018150412 -0.04280988 0.049473442
0.011931136 -0.0546315 0.003200516 -0.03161426 -0.022740074 0.0029431283 -0.035927847 0.044303887
-0.029436566 0.050070062 -0.037288606 -0.059421882 -0.059709594 0.05065255 -0.008285701 0.035541445
-0.052178837 0.016675293 0.038519315 0.035838746 -0.04897602 0.00026977807 0.00537502 -0.030179664
-0.057539344 0.048707373 -0.026300237 0.015215911 -0.021339655 -0.056365646 -0.02197937 0.056890212
-0.05407297 -0.031338602 -0.045303777 0.018803298 -0.00784494 0.009066999 0.042900138 0.0115828365
-0.03140098 -0.031656228 0.060535148 0.01858095 0.018870719 0.01032792 -0.036206603 -0.031004518

mu.weight f4 [1, 256]
00000000: 00d6 02bb 5060 b03b c0ae 4abc 7a7a 34bd
00000010: 70fe e63b 8641 00bd aacd 52bd e007 303b
00000020: a62e 123d d8bb 023d a4d7 48bd 96ff 65bd
00000030: 92f6 1bbd baf2 3a3d e025 bdbb 46ba 5a3d
00000040: fa8f 35bd 5a37 223d 4ca1 80bc e8ff cf3c
00000050: ce24 123d 30a4 d1bb e0e1 f33b 985e 09bc
00000060: 20e0 1abd e043 433d 8016 763a c4b9 bf3c
00000070: 1040 dfbc b09f 9a3b 4051 b73c ba2e 523d
00000080: acd6 f93c 1077 8ebb 50ad bfbb 0c74 bc3c
00000090: d8fd 853c 5c66 5dbd 7a0b 7d3d c017 eabc
000000a0: 46c8 2b3d 5a4e 0d3d faf3 3ebd 3832 273d
000000b0: 4c94 843c 0c83 ed3c 70dc dbbc 94c2 693d
000000c0: 4023 bb3a b863 1f3c 2074 d7bc 1c3f cd3c
000000d0: 00be 15bc 5e23 0cbd 12bb 45bd 0443 f63c
000000e0: 2cce a03c 4040 39bb 9ed0 75bd 5075 b83b
000000f0: b61c 593d 1093 12bd d2f9 7b3d ccb7 edbc
00000100: eec3 26bd a4b4 abbc 3c59 c2bc d83b cd3c
00000110: b082 0ebd 021c 153d f074 2d3c b8f5 043d
00000120: 36e6 0fbd 8809 29bd 5886 8dbc 8c37 59bd
00000130: d857 4a3c 84bb 0e3d 1e8e 3dbd b2ee 0cbd
00000140: 1291 21bd 541c 343d 5e30 47bd c424 96bc
00000150: 58db 7d3c f8a3 17bd ecf0 8dbc e8f7 703d
00000160: c229 5bbd 9a76 36bd eccf 6c3d a4e1 c7bc
00000170: 8015 10bb 88cb 013d 7238 2fbd e8e3 473d
00000180: 06c7 2c3d 58bd 323c 688c 3dbc 7e02 78bd
00000190: 80f4 49bd 9c17 5a3d 9803 503d a8c2 503c
000001a0: 3a4a 2bbd 50d4 4c3c f617 783d 9885 183c
000001b0: 84fa 5cbd 00ee 1fba 509c 27bc 2032 9a3b
000001c0: c435 423d 28e7 783d d8e3 15bc 0038 41ba
000001d0: 386d 953c f2b0 0b3d 2ce9 dd3c 429f 67bd
000001e0: dcd7 283d b062 0f3d 804f ef3a 2c98 7d3d
000001f0: 8402 493d 108b b43b 1894 7fbd 881c 0bbc
00000200: c012 4a3d 9679 123d 92ba 1c3d c0f3 96bb
00000210: 3848 193c 0c88 f2bc f83c 54bc a650 183d
00000220: d4d6 813c e0e2 4d3d e0de eb3b 580a e83c
00000230: 882c 27bc a425 4abd a8ae 06bc 1cac 7d3d
00000240: 6eb2 1e3d 181d 8cbc dc6f eabc c85d 1d3d
00000250: 8203 7ebd e003 12bc 387b 2d3d e0b4 4ebc
00000260: da2d 76bd 4877 353d 00b9 6fbb 146d 23bd
00000270: 10c7 8cbc d613 0a3d 6cc5 3abd ee1d 213d
00000280: 0098 7f38 4cac cabc 3819 063c 54bf 1bbd
00000290: 8063 0ebc 9097 543d e27f 1ebd fc8e 72bd
000002a0: 2417 8bbc 4427 6e3d a013 2b3d b8cd 11bd
000002b0: 6806 56bd 0a93 5b3d 0003 99b9 74c5 843c
000002c0: bc64 253d f01c 00bd 0060 34b8 8677 173d
000002d0: b481 5e3d a6fd 34bd 24f6 a2bc 98ad 683c
000002e0: a4ff 2f3d 0007 9fba d88c bcbc 60e3 5d3d
000002f0: 7644 033d 30a8 55bc 8640 723d c0b2 ca3c
00000300: 4eca 51bd a0a2 77bc 549f 98bc bcb0 c7bc
00000310: e6a6 66bd cc0c ebbc 10f5 373d e070 963c
00000320: eccc 5b3d 80b3 d3bc a6c7 03bd d41a a53c
00000330: ea29 4f3d a4cd d33c 04fb 0b3d f4a2 b5bc
00000340: 0c6f b43c 8a18 4a3d d66b 6abd dc6f 923c
00000350: 0466 d63c b21d 35bd cc27 ddbc a8e5 eb3c
00000360: c00b 62bd c09e 7ebd 8067 9ebb f6ca 53bd
00000370: 3a60 35bd acee 2b3d 3817 4d3d d808 233d
00000380: 7431 993c 9c11 7b3d b81a 393d 8059 f63b
00000390: 3e82 24bd 482d 3d3d 38c0 493d 64c8 e03c
000003a0: 72df 1e3d 902d b5bb e8ad d23c d023 86bb
000003b0: f6d7 36bd d85f 8e3c c0ea 0abd 26d5 0fbd
000003c0: c8bc 673c 6c2d 103d b6cd 753d 2822 e33c
000003d0: 90cf a03c 8836 543d 781c 793d 0068 fc3c
000003e0: e041 063b a62f 033d 0695 1d3d 38f8 8e3c
000003f0: 587f 7c3c ca32 7e3d 98d5 67bc fa8a 253d
-0.001996398 0.005382575 -0.012370765 -0.044062115 0.0070493743 -0.031312488 -0.051465668 0.0026860163
0.03568902 0.031917423 -0.049033776 -0.05615195 -0.038076945 0.04564164 -0.0057723373 0.0534003
-0.04432676 0.03960357 -0.015701912 0.02539058 0.03567963 -0.0063977465 0.007442698 -0.008384369
-0.0378114 0.047672153 0.0009387508 0.02340401 -0.027252227 0.0047187433 0.02237761 0.051314093
0.030497871 -0.0043476894 -0.005849518 0.023004554 0.016356394 -0.054052696 0.061778523 -0.028575778
0.041939043 0.03449855 -0.046619393 0.040819377 0.016183995 0.028993152 -0.026838511 0.05707033
0.0014277473 0.009728365 -0.02630049 0.025054507 -0.009139538 -0.034213416 -0.048274107 0.030061252
0.01962956 -0.0028267056 -0.060013406 0.005629219 0.053005897 -0.03578478 0.061517544 -0.029018305
-0.040714197 -0.02096016 -0.02372419 0.02505295 -0.034792602 0.036403663 0.010586962 0.0324609
-0.035131656 -0.041268855 -0.017275974 -0.05303149 0.012350045 0.034846798 -0.04627811 -0.034407325
-0.03944499 0.04397233 -0.04863011 -0.018328078 0.01549419 -0.037021607 -0.017326795 0.05883017
-0.05350662 -0.0445467 0.057815477 -0.024399586 -0.0021985471 0.031688243 -0.04277844 0.048801333
0.04218199 0.010909401 -0.01156912 -0.06054925 -0.04930544 0.053245172 0.050784677 0.012741722
-0.041818835 0.012501791 0.060569726 0.009309195 -0.053949848 -0.00061008334 -0.010230139 0.0047056824
0.047414556 0.060767323 -0.00914856 -0.00073707104 0.018240556 0.034104295 0.027088724 -0.056548364
0.041221485 0.035006225 0.0018257946 0.0619127 0.049074665 0.0055097416 -0.062397093 -0.008490689
0.049334288 0.035760485 0.038263865 -0.004606694 0.009355597 -0.029605888 -0.012953989 0.037186287
0.015849508 0.050265193 0.0071981996 0.028325245 -0.010203488 -0.049352303 -0.008220352 0.061931714
0.038744383 -0.017103717 -0.028617792 0.038419515 -0.062015064 -0.008912057 0.04235384 -0.012616366
-0.06010232 0.04430321 -0.0036578774 -0.039898947 -0.017184764 0.033710323 -0.045598432 0.039335184
6.09383e-05 -0.02474036 0.008184724 -0.03802426 -0.008690715 0.051902354 -0.038696177 -0.05921839
-0.016978808 0.058142915 0.041766763 -0.03559658 -0.052252203 0.053607024 -0.0002918467 0.016207434
0.04037927 -0.031277597 -4.300475e-05 0.03697922 0.054322913 -0.04418721 -0.01989276 0.014201544
0.042968407 -0.0012132823 -0.023016378 0.05417192 0.03204771 -0.013040587 0.059143566 0.024743438
-0.051218323 -0.015114456 -0.018630661 -0.024376266 -0.05631151 -0.028692625 0.044911444 0.01836437
0.053662226 -0.025842428 -0.03217282 0.020154394 0.05057708 0.025854893 0.034174934 -0.022172429
0.022025608 0.04933981 -0.057231747 0.017875604 0.026171692 -0.044217773 -0.026996516 0.028796032
-0.055186987 -0.062163115 -0.0048341155 -0.05170723 -0.044281222 0.041975662 0.05007097 0.039803356
0.018700339 0.06129609 0.045191497 0.0075179935 -0.04016327 0.04618576 0.04925558 0.027439304
0.038787313 -0.005529113 0.02571769 -0.0040936247 -0.04463955 0.017379686 -0.03391528 -0.035115384
0.01414413 0.035199568 0.060010634 0.027726248 0.019630224 0.051809818 0.060818166 0.03081131
0.0020486042 0.032027863 0.038472198 0.017452344 0.0154112205 0.062060155 -0.014150046 0.04041574

log_std.weight f4 [1, 256]
00000000: 646b ac3c c885 34bd 308f 8b3b 7eba 3bbd
00000010: 90e5 c23b 24fa 1bbd 10aa ffbb 14d0 46bd
00000020: 6c89 6c3d c09c 063c 7c23 ffbc f08c 28bc
00000030: e04d 213c 3862 3fbd a46f 9abc 489b a13c
00000040: 8848 72bc 8c03 113d 9625 0c3d 6e5b 1bbd
00000050: b0a8 a3bb d08e b1bb 00b3 bfbb 403c 713c
00000060: 0c86 043d 381c 1fbd 2c2a 273d 6ad3 2abd
00000070: 14c8 e23c 985a 5a3c 0625 51bd d8a9 5f3c
00000080: 0003 d7bb f86d 183c 1ecc 183d 2c20 95bc
00000090: 90a0 3bbc 2002 e9bc 9840 ccbc c864 ac3c
000000a0: 3098 f4bb 3c40 62bd 0003 2abc fcef bb3c
000000b0: f025 8cbc c8c7 01bc d886 6ebc 12c7 1a3d
000000c0: a0cf 66bd e0a8 4abd 983e 7dbd e424 4d3d
000000d0: 8880 66bd c01b bd3a f023 acbc eca6 53bd
000000e0: 5093 783c 2809 683d 5035 edbc d4b1 cf3c
000000f0: 0a69 3abd 90c2 06bc e854 08bd b606 6ebd
00000100: 7cf8 503d d869 5d3c 24dd c33c ac7a 18bd
00000110: f0cf ea3b 1097 883c c8ba 57bc 10a6 81bb
00000120: 886c 29bc c850 7c3d d211 71bd 2c77 5e3d
00000130: dae5 64bd bc22 ca3c 80a3 ff3b 7457 33bd
00000140: f836 3d3d 5c9d e63c 1810 d6bc 8056 fabb
00000150: a6cf 443d 0e4a 513d e075 58bd b868 5a3d
00000160: 6cc7 503d 524b 10bd 2458 98bc f00c 313d
00000170: 2012 1c3d 94da 29bd b85b de3c 0aff 6bbd
00000180: 424b 1dbd 7c57 113d bc14 e7bc c0a2 873a
00000190: 94d1 58bd fc8c cbbc 6eac 6abd b0ca 77bc
000001a0: 68f3 f63c 30de dabc 6c5b f2bc e4be 29bd
000001b0: a034 13bc 4a6d 61bd c873 553d 64c7 34bd
000001c0: 14f4 adbc f43c 363d 04bb dabc dc5b 923c
000001d0: 0050 de3c a04d c7bb 303c a03b 009f b6bb
000001e0: 80b4 1e3a c428 cfbc 7cbe ffbc 7e3f 3a3d
000001f0: a650 42bd 70bb db3b 50c1 9abb b4c5 8ebc
00000200: 3039 2c3d 666d 57bd c602 14bd 3cdd 853c
00000210: 7654 753d e698 7b3d 943e 193d 009b 8eba
00000220: e848 7bbd 08a0 6dbd 7257 17bd 1076 56bd
00000230: 8034 ebbb 80ff 233c d051 d43b aa15 02bd
00000240: 84c0 77bd 1868 0f3d 681c 463c 1c9e 06bd
00000250: 648a 493d 5444 75bd d8e0 863c 8c48 6dbd
00000260: 427d 18bd c899 26bd 40a7 1fbd f629 693d
00000270: 68aa e03c b868 9a3c 9a0e 323d f09a d6bc
00000280: 700c 9c3c 32b3 0d3d dee7 22bd 0406 f43c
00000290: eab8 4bbd 9a85 2cbd e47f fbbc 86a9 183d
000002a0: 40e9 c2bc 7e37 0cbd 00cf 293a ac56 2e3d
000002b0: 80f7 d13b 10bf f6bc f06b a9bb 4cc9 813c
000002c0: 00c0 83bc 5c61 273d a0f4 e0bb 94a2 643d
000002d0: b063 3a3c 444f 24bd e0fc 6abd 6c8e 0ebd
000002e0: e093 7c3b 70bb 583c 4082 1dbb dcb0 e33c
000002f0: d866 d43c a0f4 443b 50e1 ebbc c884 d63c
00000300: e01d 41bc 186f f63c 0e6d 363d 105d fabc
00000310: e8f5 e1bc 1a7d 44bd 72a0 4c3d e84f 3dbc
00000320: f805 a23c 321a 713d 8812 03bd b6d8 3cbd
00000330: 564d 1cbd 9c1c 743d ca2b 76bd 88a0 e1bc
00000340: 120f 44bd d8b0 17bd 287e 27bc 7000 843c
00000350: 8061 ac3a f4d9 04bd f8b9 033c 3c3b 42bd
00000360: 0a05 04bd 602c 6ebd 00f8 eab9 304d 60bd
00000370: ecf0 393d 2401 bd3c 4ed2 433d e2f2 56bd
00000380: 5cea 76bd 606a 40bc b05e 84bc 10a2 a83c
00000390: 68ff 28bc 5a5d 193d b07e ad3c a07d c6bc
000003a0: f061 2e3d 882c 223c 080f e63c 50be 8abc
000003b0: 687f 743d 582d 423d 18f7 75bd 708c 44bc
000003c0: 9c31 753d 6810 723c b8b5 693d c60e 10bd
000003d0: 08a7 5ebc 3203 663d 80f5 90ba 00d0 f5b7
000003e0: 34fb 5a3d 1a0b 303d 68be 4dbc d426 213d
000003f0: 863f 773d 869a 5bbd 908c a3bc 8007 6a3a
0.021047302 -0.044072896 0.0042590126 -0.04583215 0.005947776 -0.03808035 -0.0078022555 -0.048538283
0.057748243 0.008216083 -0.03114485 -0.010287508 0.009845227 -0.046724528 -0.018852063 0.019727364
-0.014787801 0.035403773 0.034215532 -0.03792899 -0.0049944744 -0.005418636 -0.005850196 0.014723837
0.0323544 -0.03884527 0.040811703 -0.041705526 0.027683295 0.013327263 -0.0510607 0.013651334
-0.006561637 0.009303562 0.037304036 -0.018203817 -0.011451855 -0.028443396 -0.024933144 0.02104415
-0.007464431 -0.05523704 -0.010376692 0.022941582 -0.017107934 -0.007921167 -0.014558516 0.037787504
-0.05635035 -0.049477458 -0.061827272 0.05008401 -0.05627492 0.0014427826 -0.02101323 -0.05167286
0.015171841 0.056649357 -0.028956085 0.02535335 -0.04551033 -0.008225098 -0.033284098 -0.05811187
0.051018223 0.013514005 0.023909159 -0.037226364 0.0071659014 0.016673595 -0.013167091 -0.003956564
-0.010340817 0.061600477 -0.058854885 0.05431287 -0.055883266 0.024674766 0.007801473 -0.043784574
0.046195 0.028151207 -0.026130721 -0.007639706 0.04804959 0.051096015 -0.05284679 0.053322524
0.050971434 -0.03522808 -0.018596716 0.04322523 0.038103223 -0.041468218 0.027143344 -0.05761627
-0.03840185 0.035483822 -0.02820813 0.0010348186 -0.052934244 -0.0248475 -0.057293348 -0.015124008
0.030145362 -0.026717275 -0.029584609 -0.041441813 -0.008984715 -0.055035867 0.05211237 -0.044135466
-0.02123455 0.044491723 -0.026700504 0.017866068 0.027137756 -0.0060822517 0.0048899874 -0.0055731535
0.0006054118 -0.025287993 -0.03121876 0.045470707 -0.047440194 0.006705694 -0.0047227517 -0.017428257
0.042046726 -0.052594565 -0.036135457 0.016340844 0.059895 0.061425112 0.037413195 -0.0010879934
-0.061348826 -0.058013946 -0.03694863 -0.052358687 -0.0071778893 0.010009646 0.0064794794 -0.03175894
-0.06048633 0.03501138 0.0120917335 -0.03286563 0.049204245 -0.059879616 0.016464636 -0.057930514
-0.03722883 -0.040674 -0.03897786 0.056924783 0.027425006 0.018848762 0.043470956 -0.026196927
0.0190489 0.034594722 -0.039771907 0.029788025 -0.049736895 -0.0421196 -0.030700631 0.037271045
-0.023792863 -0.03423261 0.0006477684 0.042563125 0.006407678 -0.030120403 -0.005170338 0.015843056
-0.016082764 0.040864334 -0.006865099 0.05581911 0.011376306 -0.040114656 -0.057370067 -0.034803793
0.0038540289 0.013228282 -0.0024033934 0.027794294 0.025927946 0.0030053034 -0.02879396 0.026186362
-0.011786908 0.03008227 0.044537596 -0.030561954 -0.027583078 -0.04797087 0.0499577 -0.011554696
0.019778237 0.058862872 -0.032000095 -0.04610511 -0.03815969 0.059597597 -0.060100354 -0.027542368
-0.047865935 -0.037033886 -0.010222949 0.01611349 0.0013151616 -0.03243442 0.008039944 -0.04741977
-0.032231368 -0.058147788 -0.00044816732 -0.05476111 0.045395777 0.023071833 0.047807984 -0.052477725
-0.060282096 -0.011744112 -0.016158432 0.02058509 -0.0103148 0.037442543 0.021178573 -0.024229825
0.04257387 0.009898312 0.02808334 -0.016936451 0.059691817 0.047406524 -0.0600501 -0.0119963735
0.059861764 0.014774419 0.057058066 -0.03517034 -0.013589628 0.05615539 -0.0011059493 -2.9303133e-05
0.053462222 0.042979337 -0.012557603 0.03934367 0.060363315 -0.053614162 -0.019964486 0.0008927509
